AutogluonModels/ag-20250126_213602/models/NeuralNetFastAI/model-internals.pkl (torch, 149713 bytes, 16 tensors)

weight f4 [32, 11]
0.0053381217 0.015181128 0.01071339 0.012295218 0.0011351625 0.015973719 0.0045741233 0.012831168
0.008614022 0.00064244535 0.007627672 0.01501815 -0.050386943 -0.09427547 -0.035841204 -0.05294592
-0.023210494 -0.110075384 0.023959542 0.0075510195 0.10035601 0.011097712 0.10156548 0.0062918807
-0.07032778 -0.0077351704 -0.029473355 -0.0260395 -0.08413726 -0.042281937 -0.02470436 0.04711589
0.004035098 0.012865839 -0.06338836 -0.033292964 -0.058097713 -0.07295785 -0.048811037 -0.07011274
0.036514137 0.042838015 0.047071725 -0.051446844 0.04000903 -0.0334628 -0.04883535 -0.026015563
-0.106537886 -0.096179254 -0.08470133 -0.025191957 0.043022867 0.10084362 0.0002457853 -0.004945917
0.030017504 -0.11511252 -0.08251084 -0.053711835 0.0058699413 -0.06355446 0.021864066 -0.033920996
0.08408083 -0.027490286 0.004073139 0.02495446 -0.13451315 -0.074228644 0.009142479 0.016924005
-0.0614691 0.006636348 -0.06709841 0.021154843 -0.057922296 0.081763625 0.017493151 -0.15087895
-0.09185577 -0.033452976 0.08126324 0.0021703604 0.07856718 -0.037769917 0.0389498 -0.07469706
0.16679423 0.20868143 -0.219908 0.08854105 0.1294232 0.1193351 -0.044247374 0.079337806
-0.10856071 -0.050940655 -0.12483214 0.029522434 -0.03931781 -0.064513765 -0.04645924 0.012600546
-0.013436515 -0.11593269 -0.012701341 -0.0040815673 0.08025991 -0.033033818 0.031453338 -0.0028775642
-0.109472126 -0.05182134 -0.020748628 0.0032330162 -0.12556271 0.008320294 -0.009903455 0.0014876671
-0.033951525 0.019906184 -0.06163954 -0.013272844 -0.10024113 0.0006309131 -0.08439094 -0.023207756
0.014589045 0.08425177 0.14402065 0.023637872 0.012242629 -0.050034452 -0.046144012 -0.064062886
-0.056374464 -0.13958687 -0.052733738 0.018956937 0.08081023 0.15272589 -0.018132059 0.014471108
-0.08452863 0.0029453111 -0.0750204 -0.04900126 -0.1124961 -0.03026153 0.0028875438 0.15363924
0.103784986 -0.09736617 0.077180795 -0.093026206 -0.0027627905 -0.06770493 -0.04066379 -0.12472289
-0.09165987 -0.011139763 0.1451367 0.14203595 0.02206862 0.07919519 0.07897356 -0.15029347
-0.07096035 -0.11342934 -0.044066332 -0.09132003 0.015893985 -0.01822854 0.002761876 0.016609821
0.05497303 0.021941 -0.13643199 -0.0684721 -0.09082093 -0.01892906 -0.0710919 0.06403453
-0.014619711 -0.015774177 0.015506587 0.022748448 -0.024833735 -0.13400176 0.01120978 -0.00038309186
-0.035949714 -0.08004356 0.022079691 0.014016782 0.11873271 -0.08353404 0.4750089 0.22748782
-0.1147033 -0.2632963 0.1423996 -0.0051014624 0.31046024 0.5077691 0.14090228 0.03428902
0.22733971 0.041584916 0.005676183 -0.088330954 -0.04411214 -0.020281639 -0.016182467 -0.07962086
-0.028546948 0.009262842 0.047147132 -0.016096598 0.44926894 0.23120908 -0.111790866 -0.2709847
0.093994826 -0.004934751 0.26517382 0.55315727 0.11576629 0.09976551 0.22153507 0.13598377
0.13809748 -0.17228337 0.11970361 0.14365353 0.14589563 -0.04987105 0.09094318 -0.0965595
-0.011534155 -0.1429063 0.0024850925 0.011826967 -0.05931002 -0.10317932 0.025672078 0.059528727
0.021770813 0.11842669 -0.012012849 0.06295972 0.050148875 -0.01146752 0.03212955 0.09421443
00000000: 69eb ae3b 44ba 783c 3787 2f3c e271 493c
00000010: bcc9 943a 51db 823c 87e2 953b d239 523c
00000020: d421 0d3c c769 283a 8df1 f93b b00e 763c
00000030: 8a62 4ebd 7f13 c1bd 3ace 12bd d2dd 58bd
00000040: ef23 bebc 346f e1bd cd46 c43c 8b6e f73b
00000050: 7487 cd3d 2ed3 353c 9001 d03d 1f2c ce3b
00000060: 0308 90bd 5077 fdbb 1b72 f1bc ca50 d5bc
00000070: 2850 acbd d32f 2dbd cc60 cabc 97fc 403d
00000080: db38 843b 3dcb 523c c2d1 81bd 345e 08bd
00000090: def7 6dbd ed6a 95bd 15ee 47bd 4597 8fbd
000000a0: d98f 153d ea76 2f3d 48ce 403d edb9 52bd
000000b0: 82e0 233d 4a10 09bd 9307 48bd 971e d5bc
000000c0: 8930 dabd a1f9 c4bd e477 adbd 5d5f cebc
000000d0: bf38 303d 1a87 ce3d bfdc 8039 5c11 a2bb
000000e0: 45e7 f53c 1dc0 ebbd 71fb a8bd f100 5cbd
000000f0: a358 c03b d728 82bd 451c b33c bef0 0abd
00000100: 9232 ac3d 4f33 e1bc f777 853b 4c6d cc3c
00000110: d1bd 09be 3005 98bd 56ca 153c 36a4 8a3c
00000120: 06c7 7bbd b975 d93b e46a 89bd ec4c ad3c
00000130: ee3f 6dbd b073 a73d cc4d 8f3c 0380 1abe
00000140: e11e bcbd fd05 09bd 576d a63d 9b3c 0e3b
00000150: d4e7 a03d a1b4 1abd d389 1f3d c6fa 98bd
00000160: 1bcc 2a3e 96b0 553e 902f 61be 0355 b53d
00000170: 8487 043e f665 f43d bc3c 35bd dc7b a23d
00000180: 1455 debd 26a7 50bd fea7 ffbd 08d9 f13c
00000190: b60b 21bd cb1f 84bd 0b4c 3ebd 8572 4e3c
000001a0: d424 5cbc 1e6e edbd 4919 50bc abbe 85bb
000001b0: 4f5f a43d 784e 07bd 37d5 003d 8495 3cbb
000001c0: ec32 e0bd 9d42 54bd 07f9 a9bc 03e1 533b
000001d0: 8393 00be d851 083c 1a42 22bc d3fd c23a
000001e0: c110 0bbd 4b12 a33c be79 7cbd 5876 59bc
000001f0: 394b cdbd dd63 253a 28d5 acbd 311e bebc
00000200: e406 6f3c 318c ac3d 267a 133e 36a4 c13c
00000210: 4f95 483c edf0 4cbd 8101 3dbd 6733 83bd
00000220: e9e8 66bd dcef 0ebe 55ff 57bd 944b 9b3c
00000230: d57f a53d 2d64 1c3e af89 94bc 3a18 6d3c
00000240: 591d adbd 1f06 413b 4ca4 99bd 8cb5 48bd
00000250: 5b64 e6bd 07e7 f7bc f23c 3d3b 9b53 1d3e
00000260: 398d d43d ea67 c7bd f710 9e3d 8684 bebd
00000270: ef0f 35bb e2a8 8abd 138f 26bd b76e ffbd
00000280: 2cb8 bbbd 8d83 36bc b79e 143e df71 113e
00000290: 40c9 b43c 1631 a23d e4bc a13d 88e6 19be
000002a0: a953 91bd a44d e8bd e67e 34bd ff05 bbbd
000002b0: 1a34 823c 0554 95bc 9700 353b 5211 883c
000002c0: 662b 613d 9dbd b33c d4b4 0bbe 1a3b 8cbd
000002d0: 5300 babd 1e11 9bbc a198 91bd 8924 833d
000002e0: 8387 6fbc d938 81bc 570f 7e3c f45a ba3c
000002f0: 1e70 cbbc c237 09be 3aa9 373c b8d9 c8b9
00000300: 0240 13bd e1ed a3bd 78e0 b43c a5a6 653c
00000310: 232a f33d e513 abbd 5e34 f33e 91f2 683e
00000320: 90e9 eabd c6ce 86be 33d1 113e 2b2a a7bb
00000330: a5f4 9e3e 28fd 013f b048 103e a572 0c3d
00000340: becb 683e f254 2a3d 46ff b93b dce6 b4bd
00000350: eeae 34bd ae25 a6bc 1891 84bc 4310 a3bd
00000360: 4adb e9bc 2dc3 173c 5a1d 413d 03dd 83bc
00000370: 9406 e63e 13c2 6c3e 9cf2 e4bd 82be 8abe
00000380: 5c80 c03d b1b3 a1bb ddc4 873e b79b 0d3f
00000390: e016 ed3d dc51 cc3d 17da 623e 543f 0b3e
000003a0: 6d69 0d3e 0d6b 30be 2b27 f53d e919 133e
000003b0: aa65 153e 9645 4cbd 6b40 ba3d fdc0 c5bd
000003c0: c1f9 3cbc 0756 12be efdc 223b e5c5 413c
000003d0: 10ef 72bd ae4f d3bd 404e d23c 65d4 733d
000003e0: b458 b23c b189 f23d 8ad1 44bc 07f1 803d
000003f0: e868 4d3d 44e2 3bbc 469a 033d 7ff3 c03d

weight f4 [4]
0.9739622 1.0153215 0.89208835 0.865273
00000000: 9655 793f 0ef6 813f e75f 643f 8882 5d3f

bias f4 [4]
-0.34020898 -0.36040702 -0.13675046 -0.021185283
00000000: df2f aebe 4587 b8be 5008 0cbe c28c adbc

running_mean f4 [4]
-0.0055680173 -0.005349797 -0.002298915 0.009343115
00000000: ea73 b6bb 5a4d afbb 65a9 16bb dd13 193c

running_var f4 [4]
1.0053833 0.9974367 0.996699 1.0254887
00000000: 66b0 803f 0358 7f3f aa27 7f3f 3743 833f

weight f4 [200, 15]
-0.23584574 -0.09332383 0.19274399 0.202489 -0.1356692 0.18538454 0.03916073 -0.11471714
-0.1624829 -0.21837817 0.29703647 -0.04536914 0.028567646 0.09338728 0.23168041 0.26764908
0.3067709 -0.15714426 -0.059609152 -0.06204654 -0.0954556 0.25538126 0.24340606 -0.17223884
0.04799302 -0.034818698 0.023542931 0.28384304 -0.06137378 -0.0002707252 -0.26539758 0.16084126
-0.11158766 -0.13267079 -0.026456425 -0.16049613 -0.2344251 -0.09727741 0.10614488 -0.08417769
0.0073091798 0.26894915 0.2373113 -0.13660054 -0.0069659813 -0.10253678 -0.30017522 0.2724973
0.12264134 0.20007809 -0.12793322 0.23620427 -0.21886657 0.3661259 -0.10350179 -0.1950652
0.07417286 0.18393545 -0.19202654 0.25010356 0.21526311 -0.0903341 0.09882627 0.15355457
-0.07174459 -0.064776555 0.39699194 -0.059239738 0.23827782 0.16835904 0.17582035 -0.10404693
0.31411448 -0.14489901 0.21663798 -0.21101227 -0.03345116 0.33718008 0.096787915 0.15187086
-0.0321394 0.32664296 0.007799038 -0.0878208 -0.091066144 0.21498461 0.025580995 0.102750234
0.33743635 0.03909244 -0.2816439 -0.11614477 0.009862056 -0.01924626 -0.012329056 0.04680286
0.30663496 -0.24081588 0.14643382 -0.3207591 0.07124029 0.30532125 0.31926376 -0.07370596
0.092177354 -0.14845651 -0.26179454 0.10324463 0.08448144 -0.3190868 -0.07941439 0.13712867
-0.23686615 0.2043765 -0.039935257 0.17375016 0.30129755 -0.02249777 0.06453317 -0.0779274
-0.05702602 0.13742179 0.03324758 0.011862275 0.2303697 0.16054243 0.36809987 -0.01563598
-0.07485625 -0.23230247 -0.13057494 0.18093406 0.11095198 -0.066979446 -0.011219992 0.19766545
0.0919893 -0.067743264 -0.020991137 0.11683726 0.22783692 -0.016718758 0.15767469 0.09198455
-0.09197192 0.12777594 0.047188558 0.21470709 -0.07808335 -0.12512057 0.10617242 -0.3454594
-0.40889198 -0.079432614 -0.033160836 -0.18005511 -0.27348304 0.13843702 -0.18350701 0.20446631
-0.10119586 -0.1507805 -0.07632513 0.029677154 -0.027701374 0.20293072 0.28132337 -0.44750288
-0.123452134 0.0877483 0.23372385 -0.14709468 0.20929793 0.016987065 -0.26677942 -0.15060908
0.001892642 -0.12758076 -0.19044937 0.28728098 0.21011755 0.30184484 0.30525714 -0.4677012
0.16036609 0.04224183 0.16088925 0.41142273 0.33616602 0.18924826 0.07832739 0.085158564
-0.26088706 0.016236007 0.03374512 0.029826986 0.06744021 0.19070916 0.26860002 0.031372696
0.09919453 -0.16956925 -0.37838557 -0.085440114 0.07758833 -0.24216644 0.26999143 0.19616836
0.04273324 -0.007533938 0.16834353 0.25772905 -0.30264398 -0.025281083 0.15895544 0.16326815
0.04822781 -0.38834327 -0.3283488 -0.034191303 -0.019252999 -0.22085829 0.105517216 -0.1808852
0.23679933 0.0008483326 0.31635055 -0.34259164 -0.065285996 0.06916608 0.34134072 0.04899907
0.059921823 -0.4458843 -0.00029023646 -0.2955385 0.051645476 -0.1688164 -0.13451117 0.043092087
-0.2688524 -0.2916978 -0.08278452 -0.2478608 0.0925593 -0.23106878 -0.24667439 -0.25671822
-0.13544537 -0.06541354 0.03921251 0.12744272 0.039510388 -0.18616389 0.04355531 -0.10167144
00000000: 8c81 71be 9020 bfbd ae5e 453e 4759 4f3e
00000010: deec 0abe 72d5 3d3e 0067 203d d2f0 eabd
00000020: eb61 26be 879e 5fbe 2a15 983e fed4 39bd
00000030: b206 ea3c d541 bf3d a13d 6d3e 4d09 893e
00000040: 1311 9d3e 6dea 20be ba28 74bd 8324 7ebd
00000050: 3a7e c3bd 55c1 823e 703f 793e 615f 30be
00000060: 5494 443d 0d9e 0ebd 1bdd c03c e053 913e
00000070: 1363 7bbd 1ff0 8db9 31e2 87be 92b3 243e
00000080: 1288 e4bd dada 07be 25bb d8bc 1959 24be
00000090: 220d 70be 6139 c7bd 7d62 d93d 5a65 acbd
000000a0: d881 ef3b b4b3 893e bc01 733e 03e1 0bbe
000000b0: e342 e4bb cefe d1bd 91b0 99be c484 8b3e
000000c0: 622b fb3d 45e1 4c3e ed00 03be 88df 713e
000000d0: 8f1e 60be db74 bb3e bff8 d3bd 2cbf 47be
000000e0: f1e7 973d 9359 3c3e 9ba2 44be 930d 803e
000000f0: ef6d 5c3e 1601 b9bd 6d65 ca3d 693d 1d3e
00000100: d4ee 92bd 92a9 84bd 8742 cb3e 5ea5 72bd
00000110: 1aff 733e 5066 2c3e 400a 343e 8f16 d5bd
00000120: 9dd3 a03e 6860 14be 59d6 5d3e 9a13 58be
00000130: 1504 09bd dea2 ac3e be38 c63d 0984 1b3e
00000140: 9aa4 03bd bf3d a73e 138f ff3b 64db b3bd
00000150: e380 babd ed24 5c3e 3c8f d13c b76e d23d
00000160: 75c4 ac3e 651f 203d a133 90be 4fdd edbd
00000170: 7694 213c 55aa 9dbc cfff 49bc 5bb4 3f3d
00000180: 42ff 9c3e 7098 76be bff2 153e 893a a4be
00000190: 6ee6 913d 1153 9c3e 8a76 a33e 26f3 96bd
000001a0: 7bc7 bc3d fc04 18be ef09 86be ec71 d33d
000001b0: 9b04 ad3d 585f a3be 03a4 a2bd 756b 0c3e
000001c0: 0a8d 72be 1348 513e 2793 23bd 90eb 313e
000001d0: ac43 9a3e 3e4d b8bc f729 843d 6798 9fbd
000001e0: 1e94 69bd 4cb8 0c3e 9d2e 083d fd59 423c
000001f0: 09e6 6b3e 3c65 243e 9677 bc3e 0717 80bc
00000200: 3c4e 99bd b3e0 6dbe 70b5 05be c746 393e
00000210: cb3a e33d 852c 89bd 0fd4 37bc d068 4a3e
00000220: e364 bc3d fbbc 8abd 9bf5 abbc 6048 ef3d
00000230: 154e 693e c7f5 88bc 7975 213e 6562 bc3d
00000240: c65b bcbd b2d7 023e ca48 413d 2ddc 5b3e
00000250: 2aea 9fbd 9b1f 00be ed70 d93d 0ee0 b0be
00000260: 4a5a d1be 91ad a2bd a8d3 07bd 5e60 38be
00000270: f805 8cbe 6fc2 0d3e 43e9 3bbe 9e5f 513e
00000280: c63f cfbd 3466 1abe 5a50 9cbd 811d f33c
00000290: feed e2bc 12cd 4f3e 9e09 903e 191f e5be
000002a0: 79d4 fcbd 61b5 b33d 4e55 6f3e fd9f 16be
000002b0: 3252 563e 7528 8b3c 5097 88be 4439 1abe
000002c0: 8712 f83a 88a4 02be 2905 43be 7e16 933e
000002d0: 0e29 573e 688b 9a3e aa4a 9c3e 8876 efbe
000002e0: 0237 243e c505 2d3d 27c0 243e 00a6 d23e
000002f0: f41d ac3e 4cca 413e 1c6a a03d 9d67 ae3d
00000300: fd92 85be 6001 853c 5338 0a3d b957 f43c
00000310: 181e 8a3d 4349 433e f185 893e a880 003d
00000320: 8026 cb3d 90a3 2dbe c1bb c1be 3afb aebd
00000330: a1e6 9e3d 7bfa 77be 513c 8a3e 5ce0 483e
00000340: 0d09 2f3d 41df f6bb 3f62 2c3e 10f5 833e
00000350: 27f4 9abe 461a cfbc 37c5 223e c42f 273e
00000360: 868a 453d eed4 c6be 551d a8be 2e0c 0cbd
00000370: 77b8 9dbc ad28 62be 6919 d83d f839 39be
00000380: 867b 723e a362 5e3a b3f8 a13e 2c68 afbe
00000390: aab4 85bd f2a6 8d3d 36c4 ae3e 40b3 483d
000003a0: 9670 753d f24a e4be e12a 98b9 d350 97be
000003b0: 358a 533d 35de 2cbe 4cbd 09be 5481 303d
000003c0: 06a7 89be 6a59 95be ee8a a9bd 39cf 7dbe
000003d0: bb8f bd3d 4b9d 6cbe 3698 7cbe 9270 83be
000003e0: 31b2 0abe 89f7 85bd 4c9d 203d 5880 023e
000003f0: a5d5 213d bfa1 3ebe 0e67 323d 1e39 d0bd

weight f4 [200]
1.0477113 1.0885438 1.0357074 0.9831714 0.93829507 1.0061189 1.0751089 0.9403757
1.0448618 0.9729518 1.0328695 0.88157094 0.96078604 1.0398347 0.8895657 0.8955544
1.0189277 0.9905168 1.0115013 0.9575285 1.1049356 1.0718137 0.9647822 0.9928662
0.9307261 0.98763406 0.91545767 0.91385436 0.888148 0.931275 0.9681023 0.98321027
0.84704053 1.0161822 0.95530874 0.9851382 0.95136625 1.0451652 1.0448848 0.97520465
1.0020014 0.9268234 1.0956254 1.0239043 0.8921743 0.9945349 1.1647197 1.0443817
0.97309905 1.0516104 1.0035875 1.1377819 0.973292 0.9374081 0.93571854 0.9702603
0.95308536 0.9989905 0.92738515 1.0250083 0.9704578 0.9653911 1.0291353 0.9701984
1.0660095 1.0760727 1.001652 1.0214128 0.9170394 0.934115 0.99680156 1.1256934
0.9637402 0.96777624 0.95752496 0.9915706 1.0859846 1.1171707 0.95484114 1.1629764
1.1198322 0.97266454 0.97651416 0.9453397 0.9649973 0.97370636 1.0294942 0.99665034
1.1400152 0.96989775 0.94917506 0.8331476 0.84285396 1.0202157 1.0665421 0.95705104
0.9734054 1.0270606 1.0722768 0.9753361 1.1015673 0.980235 1.1494755 1.0895681
0.9706771 0.94979256 0.9273051 0.906277 0.9562188 0.8745021 0.9901416 1.1951784
0.93298763 1.04997 0.9665708 1.0300028 0.9181321 0.96034247 0.9620411 1.0057143
0.95617205 0.94126207 1.0221074 0.9596849 0.9685593 1.0142308 1.0189846 0.94467413
1.0152564 0.89516 1.1041554 0.8119575 1.0572407 0.95000905 0.9623663 0.99489504
0.91984224 0.9200396 1.0051094 0.9449005 0.8705199 0.9805134 0.9865627 1.0071727
0.9447233 1.06105 0.9002143 0.897796 1.0176876 0.95576173 1.097709 0.99628866
0.988723 0.98202866 1.1045585 0.96263516 0.95801383 1.0254644 1.0293926 0.9879053
0.8761951 0.96246475 0.9817825 0.98691154 0.9547645 0.9355823 0.9094204 0.9759289
1.0068836 1.0635053 0.96241313 0.96300966 1.067579 0.9733394 0.9523875 0.9714584
1.0016042 0.96552736 1.0670078 0.97010463 0.9984926 0.94802296 1.0340564 0.92588484
0.8707384 0.9483037 0.94324845 1.0151545 0.9690956 1.1104113 0.9724381 0.92211425
1.0319052 0.9913888 0.9128429 0.98100954 1.0120478 1.1232475 0.99819916 0.88967586
00000000: 671b 863f 6755 8b3f 0f92 843f 1fb1 7b3f
00000010: 1b34 703f 81c8 803f 2b9d 893f 76bc 703f
00000020: 08be 853f 5f13 793f 1135 843f a2ae 613f
00000030: 13f6 753f 4e19 853f 94ba 633f 0e43 653f
00000040: 396c 823f 8292 7d3f e078 813f 9620 753f
00000050: 886e 8d3f 3131 893f f7fb 763f 7b2c 7e3f
00000060: 1144 6e3f 96d5 7c3f 6f5b 6a3f 5cf2 693f
00000070: ab5d 633f 0a68 6e3f 8dd5 773f abb3 7b3f
00000080: a6d7 583f 4212 823f 1d8f 743f 0432 7c3f
00000090: bd8c 733f f9c7 853f c9be 853f 03a7 793f
000000a0: 9541 803f 4c44 6d3f 743d 8c3f 4c0f 833f
000000b0: 8965 643f d799 7e3f 8915 953f 4dae 853f
000000c0: 051d 793f 2b9b 863f 8e75 803f d6a2 913f
000000d0: aa29 793f faf9 6f3f 408b 6f3f fb62 783f
000000e0: 67fd 733f d7bd 7f3f 1d69 6d3f 7933 833f
000000f0: ec6f 783f df23 773f b5ba 833f ec5e 783f
00000100: 0073 883f c0bc 893f 2236 803f a8bd 823f
00000110: 18c3 6a3f 2922 6f3f 632e 7f3f b916 903f
00000120: aeb7 763f 2fc0 773f 5b20 753f 92d7 7d3f
00000130: 8b01 8b3f 73ff 8e3f 7870 743f 69dc 943f
00000140: a956 8f3f 8b00 793f d5fc 793f c801 723f
00000150: 100a 773f d244 793f 77c6 833f 7a24 7f3f
00000160: 05ec 913f 384b 783f 23fd 723f 2949 553f
00000170: 47c5 573f 6e96 823f 7484 883f 4c01 753f
00000180: 1931 793f b976 833f 5e40 893f a0af 793f
00000190: 2800 8d3f aef0 7a3f 0322 933f f876 8b3f
000001a0: 4b7e 783f 9b25 733f de63 6d3f c501 683f
000001b0: c1ca 743f 5fdf 5f3f eb79 7d3f 9bfb 983f
000001c0: 47d8 6e3f 6b65 863f 2f71 773f 22d7 833f
000001d0: b50a 6b3f 01d9 753f 5348 763f 3fbb 803f
000001e0: b1c7 743f 8df6 703f 6ad4 823f e9ad 753f
000001f0: 81f3 773f 51d2 813f 166e 823f 2ad6 713f
00000200: ecf3 813f 3529 653f f754 8d3f 72dc 4f3f
00000210: aa53 873f cb33 733f a35d 763f 71b1 7e3f
00000220: c87a 6b3f b787 6b3f 6da7 803f 00e5 713f
00000230: 64da 5e3f ed02 7b3f 608f 7c3f 09eb 803f
00000240: 63d9 713f 7dd0 873f 7274 663f f5d5 653f
00000250: 9643 823f cdac 743f ba81 8c3f c60c 7f3f
00000260: f31c 7d3f 3b66 7b3f 2c62 8d3f 426f 763f
00000270: 6540 753f 6b42 833f 23c3 833f 5de7 7c3f
00000280: 524e 603f 1764 763f 1956 7b3f 3ca6 7c3f
00000290: 726b 743f 5282 6f3f c6cf 683f 7ad6 793f
000002a0: 90e1 803f f120 883f b560 763f cd87 763f
000002b0: 6ea6 883f c52c 793f abcf 733f 7fb1 783f
000002c0: 9134 803f cd2c 773f b693 883f c758 783f
000002d0: 369d 7f3f a2b1 723f f65b 843f ca06 6d3f
000002e0: b6e8 5e3f 08c4 723f bb78 713f 95f0 813f
000002f0: a616 783f f521 8e3f b4f1 783f ae0f 6c3f
00000300: 7815 843f a8cb 7d3f 13b0 693f 7123 7b3f
00000310: c88a 813f 93c6 8f3f fb89 7f3f ccc1 633f

bias f4 [200]
0.26685208 -0.06950793 0.14661713 -0.141755 0.028644618 -0.11841243 0.04039853 0.17816561
-0.0105707 0.15927869 0.017473023 0.22894073 0.052805632 0.23641044 0.18386848 0.117400244
0.03778893 0.062355135 0.19290917 0.23787771 0.15104856 -0.036299184 -0.279166 0.164198
0.21028322 -0.06435105 0.044538256 0.09885756 0.052832182 0.20729458 -0.048318703 -0.066976495
0.08756016 0.005560596 0.07946924 -0.016246784 0.090217665 0.060339577 -0.12255799 0.15090084
-0.014298347 0.064997315 0.0352033 0.12400991 -0.16335079 0.14516799 -0.04978655 0.14594062
0.050125208 0.17142549 0.13985547 0.17203695 -0.024450408 0.023140073 0.07055203 0.124268465
0.100985475 0.21050428 0.19663054 0.09173591 0.051923312 0.090320215 -0.08372118 -0.012308697
0.03364745 0.06313921 0.15082742 0.08715861 -0.34907132 -0.14578968 0.07657154 0.06765403
0.02413001 0.09629699 0.201264 0.19272602 0.24731985 -0.014613409 0.08979211 0.17693155
0.11579163 0.108188145 0.10302161 0.19023377 -0.20507495 0.16738948 -0.066674046 0.1119466
0.052146826 -0.048452567 0.09124006 0.23943028 -0.011647368 0.047386985 0.11343988 -0.076145455
0.2633081 0.25972098 0.11701561 0.09528703 0.06961913 0.18421152 0.1792819 -0.018628338
-0.25887662 0.04263144 0.15591791 -0.11556986 0.01899 -0.0806627 -0.006316133 0.1473997
0.13628256 -0.12960345 0.1295982 -0.05599835 0.24187197 0.1402411 -0.05550725 0.16909659
0.058210388 0.18775423 0.044677965 -0.062831916 0.14591843 0.09182764 0.23537572 0.24723476
-0.0064053712 -0.21795395 0.08725282 0.17718358 -0.06316505 0.18285054 0.13820074 0.05753998
-0.17892797 0.09944882 -0.08608222 0.13134938 0.27276003 0.04971478 0.1796155 -0.07347347
0.29825938 0.08167598 0.15049435 -0.13232784 0.24074657 -0.03212302 0.10811762 -0.030265212
-0.060703 -0.08272423 -0.055294223 0.20218626 0.06490317 0.11595346 -0.173479 -0.011973266
0.23914242 -0.011159606 0.077956565 0.030535053 0.031717952 0.32114422 -0.11194277 -0.020916231
0.020725396 -0.07024493 -0.0323997 0.18752685 -0.16041866 -0.05140336 -0.12918076 -0.08350145
-0.056756627 -0.038047835 -0.052603193 0.4320353 -0.089108065 0.08459069 -0.13892217 0.013653232
0.3160497 0.1902874 0.021862917 0.0042258706 0.16148436 0.15887168 -0.035456616 -0.1494162
0.11240381 0.2339549 0.12622976 -0.1463176 -0.23980874 0.07866693 0.012027345 -0.021860912
00000000: d6a0 883e 2c5a 8ebd cd22 163e 3928 11be
00000010: 1ea8 ea3c 3782 f2bd ee78 253d 0c71 363e
00000020: bb30 2dbc f419 233e 9623 8f3c 706f 6a3e
00000030: b84a 583d 9415 723e 0548 3c3e 8a6f f03d
00000040: 91c8 1a3d 1968 7f3d fb89 453e 3796 733e
00000050: 79ac 1a3e 74ae 14bd d9ee 8ebe 8523 283e
00000060: 7c54 573e 7cca 83bd bf6d 363d d575 ca3d
00000070: 8f66 583d 0845 543e d5e9 45bd f92a 89bd
00000080: be52 b33d a935 b63b c5c0 a23d fa17 85bc
00000090: 0ac4 b83d a226 773d afff fabd c085 1a3e
000000a0: 9d43 6abc 501d 853d 5631 103d e8f8 fd3d
000000b0: 6e45 27be eba6 143e fbec 4bbd 7571 153e
000000c0: 1750 4d3d 2a8a 2f3e 4636 0f3e 742a 303e
000000d0: 394c c8bc 4090 bd3c 957d 903d 7780 fe3d
000000e0: 79d1 ce3d 6f8e 573e 8459 493e 09e0 bb3d
000000f0: 8aad 543d cef9 b83d 0376 abbd 6baa 49bc
00000100: e9d1 093d 214f 813d 8172 1a3e 3780 b23d
00000110: 7ab9 b2be e449 15be 8ad1 9c3d 328e 8a3d
00000120: 4cac c53c 5b37 c53d 2618 4e3e f859 453e
00000130: 6a41 7d3e 146d 6fbc ede4 b73d 8b2d 353e
00000140: 2a24 ed3d bf91 dd3d fefc d23d a4cc 423e
00000150: 2bff 51be 2668 2b3e 678c 88bd 4244 e53d
00000160: e997 553d 3376 46bd 12dc ba3d 362d 753e
00000170: 9ad4 3ebc db18 423d 2b53 e83d 26f2 9bbd
00000180: 52d0 863e 26fa 843e e1a5 ef3d d925 c33d
00000190: 7994 8e3d f2a1 3c3e ad95 373e 759a 98bc
000001a0: 7a8b 84be 4e9e 2e3d f2a8 1f3e e4af ecbd
000001b0: eb90 9b3c 7c32 a5bd 90f7 cebb f2ef 163e
000001c0: a88d 0b3e c4b6 04be 64b5 043e 875e 65bd
000001d0: 49ad 773e 5d9b 0f3e 925b 63bd a827 2d3e
000001e0: 046e 6e3d a542 403e 3e00 373d 05ae 80bd
000001f0: a46b 153e 2110 bc3d 5506 713e 1c2b 7d3e
00000200: 26e4 d1bb 522f 5fbe 9bb1 b23d 9d6f 353e
00000210: ae5c 81bd 2c3d 3b3e 7f84 0d3e 0baf 6b3d
00000220: e538 37be d3ab cb3d e04b b0bd 7480 063e
00000230: 34a7 8b3e baa1 4b3d 20ed 373e 4279 96bd
00000240: 74b5 983e bc45 a73d 311b 1a3e f380 07be
00000250: 4586 763e 6e93 03bd c56c dd3d c0ee f7bc
00000260: b5a3 78bd 526b a9bd 327c 62bd ea09 4f3e
00000270: f4eb 843d 0279 ed3d 7ba4 31be 842b 44bc
00000280: c0e1 743e c8d6 36bc b1a7 9f3d a624 fa3c
00000290: afea 013d 046d a43e 4042 e5bd 8458 abbc
000002a0: 4ec8 a93c 93dc 8fbd 8cb5 04bd 0a07 403e
000002b0: ca44 24be 548c 52bd f647 04be cf02 abbd
000002c0: a379 68bd 0cd8 1bbd 7276 57bd bb33 dd3e
000002d0: 4a7e b6bd e23d ad3d 9d41 0ebe ceb1 5f3c
000002e0: 44d1 a13e b3da 423e dc19 b33c 2c79 8a3b
000002f0: 285c 253e 42af 223e f53a 11bd 8f00 19be
00000300: f833 e63d e091 6f3e 6042 013e 48d4 15be
00000310: 6c90 75be 211c a13d 570e 453c a815 b3bc

running_mean f4 [200]
0.059701636 0.1128801 0.14583813 0.094574474 0.09551574 0.077264085 0.14949629 0.067430764
0.07173146 0.0958697 0.18208134 0.20680615 0.14384963 0.11435366 0.1583518 0.13487068
0.07418943 0.08686808 0.22926654 0.24269117 0.15736753 0.12522097 0.094961636 0.10270341
0.32580906 0.09244888 0.12234745 0.288282 0.15740813 0.13268514 0.11670671 0.15107329
0.038114607 0.1833986 0.051413275 0.09490204 0.13668679 0.12984493 0.10119523 0.09192968
0.14227414 0.17250915 0.10818489 0.12731871 0.034526713 0.088307284 0.08409863 0.2534059
0.18850969 0.15762907 0.10453323 0.18023022 0.13617536 0.14679714 0.086416095 0.07176111
0.15298554 0.22433013 0.12727858 0.080152005 0.08582367 0.10189532 0.08421427 0.28523624
0.12619428 0.10074009 0.14190485 0.07889386 0.10840151 0.059243415 0.13283387 0.10496335
0.07287958 0.06238798 0.103811376 0.24143557 0.13708504 0.06518237 0.10066189 0.10326641
0.11089686 0.35916734 0.10841316 0.09964962 0.085217096 0.29826796 0.08826786 0.28230733
0.095923446 0.049209233 0.08487275 0.24648878 0.09041137 0.09629256 0.1679651 0.15982719
0.16758563 0.1589692 0.0898002 0.09958103 0.1561042 0.15810929 0.08085803 0.10901259
0.050260924 0.043756854 0.11998485 0.06881493 0.06393959 0.05763219 0.07568724 0.13717246
0.061917905 0.066591 0.2709059 0.09922118 0.28135395 0.17967746 0.11352106 0.090833195
0.08493775 0.06886428 0.20978442 0.2517096 0.22611985 0.09385282 0.06466154 0.046995386
0.0977602 0.11037479 0.110682696 0.23106022 0.09960063 0.34988213 0.15338627 0.25323108
0.0668327 0.12063037 0.1287798 0.2986937 0.267837 0.11033939 0.24968374 0.087541685
0.21120745 0.081811614 0.11792715 0.06294553 0.063429944 0.102017306 0.14310084 0.14899844
0.04480504 0.08040176 0.056750856 0.118056625 0.07616131 0.12067579 0.097923025 0.27833226
0.17185998 0.18946905 0.30490625 0.048385285 0.11724703 0.16482899 0.11198013 0.062362254
0.12894869 0.12136993 0.11922714 0.088784255 0.122464254 0.09921582 0.07309715 0.07761869
0.046889525 0.09345367 0.1038138 0.2462586 0.11064798 0.09718239 0.09399116 0.1787956
0.1248251 0.03956618 0.059454687 0.15765318 0.3101574 0.11558123 0.105453774 0.074217275
0.2695244 0.13316837 0.22746754 0.08856664 0.071852624 0.09412985 0.036524765 0.098593526
00000000: b489 743d af2d e73d 9756 153e 43b0 c13d
00000010: c29d c33d a23c 9e3d 8e15 193e 2419 8a3d
00000020: f2e7 923d 5557 c43d 8873 3a3e fec4 533e
00000030: 514d 133e 4032 ea3d f926 223e 8a1b 0a3e
00000040: a1f0 973d e4e7 b13d d9c4 6a3e 0984 783e
00000050: f424 213e ed39 003e 3f7b c23d 2a56 d23d
00000060: 72d0 a63e d755 bd3d 4d91 fa3d b399 933e
00000070: 992f 213e 9dde 073e ed03 ef3d f5b2 1a3e
00000080: 101e 1c3d d8cc 3b3e ba96 523d 005c c23d
00000090: 9ff7 0b3e 12f6 043e 723f cf3d a145 bc3d
000000a0: 50b0 113e 3da6 303e 0a90 dd3d d65f 023e
000000b0: e26b 0d3d 73da b43d e73b ac3d 6bbe 813e
000000c0: af08 413e 8469 213e 8515 d63d 458e 383e
000000d0: 8e71 0b3e fd51 163e ecfa b03d 7df7 923d
000000e0: 3ea8 1c3e ccb6 653e 5155 023e bc26 a43d
000000f0: 52c4 af3d 7eae d03d 8878 ac3d 7c0a 923e
00000100: 1339 013e d250 ce3d 814f 113e 1b93 a13d
00000110: 9c01 de3d 39a9 723d 9a05 083e 06f7 d63d
00000120: e441 953d 8a8a 7f3d 0f9b d43d e33a 773e
00000130: 0560 0c3e 567e 853d d227 ce3d 577d d33d
00000140: e51d e33d c8e4 b73e b807 de3d 1a15 cc3d
00000150: 4d86 ae3d 94b6 983e c8c5 b43d 968a 903e
00000160: 8373 c43d 9f8f 493d c4d1 ad3d 8e67 7c3e
00000170: 9929 b93d 0935 c53d 0bff 2b3e bda9 233e
00000180: 919b 2b3e d2c8 223e 2be9 b73d 24f1 cb3d
00000190: c8d9 1f3e 67e7 213e e598 a53d fe41 df3d
000001a0: 66de 4d3d 633a 333d 9eba f53d d8ee 8c3d
000001b0: c2f2 823d bb0f 6c3d e901 9b3d f076 0c3e
000001c0: a19d 7d3d dd60 883d 2eb4 8a3e 7934 cb3d
000001d0: a00d 903e 5efd 373e bb7d e83d c106 ba3d
000001e0: d8f3 ad3d b708 8d3d bad1 563e 15e0 803e
000001f0: f68b 673e e835 c03d 456d 843d 3c7e 403d
00000200: 8036 c83d 2e0c e23d 9cad e23d 0d9b 6c3e
00000210: 6afb cb3d c023 b33e 4a11 1d3e 81a7 813e
00000220: 95df 883d 0e0d f73d dade 033e 61ee 983e
00000230: ee21 893e 9ef9 e13d 18ad 7f3e 0e49 b33d
00000240: c446 583e d98c a73d ca83 f13d 96e9 803d
00000250: 8fe7 813d 73ee d03d 0789 123e 0c93 183e
00000260: 7d85 373d aea9 a43d 9673 683d acc7 f13d
00000270: 76fa 9b3d de24 f73d de8b c83d 9181 8e3e
00000280: 10fc 2f3e 2d04 423e ac1c 9c3e a62f 463d
00000290: 361f f03d eec8 283e d755 e53d 906f 7f3d
000002a0: 200b 043e cc90 f83d 5c2d f43d 85d4 b53d
000002b0: 8ace fa3d aa31 cb3d f5b3 953d 8cf6 9e3d
000002c0: 3b0f 403d a364 bf3d 549c d43d 372b 7c3e
000002d0: 689b e23d 9007 c73d 707e c03d 3216 373e
000002e0: 4da4 ff3d 2610 223d c286 733d d66f 213e
000002f0: f3cc 9e3e dab5 ec3d 26f8 d73d 3aff 973d
00000300: 1aff 893e 4a5d 083e 40ed 683e 6d62 b53d
00000310: 7827 933d 27c7 c03d fe9a 153d 67eb c93d

running_var f4 [200]
0.009704967 0.028518215 0.051106572 0.027669828 0.024424564 0.018769339 0.05875102 0.01364295
0.014490412 0.023361294 0.033520702 0.059727777 0.028481456 0.034150492 0.04153205 0.024401259
0.0142288115 0.027564026 0.07056681 0.070457034 0.063132875 0.035629414 0.02423569 0.025678234
0.1474547 0.016705839 0.024699869 0.08495033 0.035246078 0.023330256 0.01568482 0.042324796
0.005475241 0.049735103 0.010018728 0.017080242 0.041221175 0.037144084 0.024186052 0.0197716
0.03346894 0.045084458 0.027483948 0.043468323 0.0047794143 0.027316872 0.019979576 0.07189058
0.053488214 0.06298082 0.023883268 0.08491909 0.04582845 0.033611886 0.00856637 0.016126493
0.035015315 0.07970551 0.029673235 0.015805019 0.022398967 0.021473598 0.013716047 0.09873934
0.03951753 0.030249748 0.026835794 0.013492119 0.028696036 0.01147618 0.030605465 0.030328041
0.01824973 0.011558646 0.023984974 0.060334228 0.052198846 0.012401472 0.021542065 0.029619422
0.03292586 0.15874858 0.040169712 0.027697101 0.015453954 0.10147836 0.014547086 0.09551817
0.026521558 0.0051725833 0.013225401 0.08331969 0.01487318 0.02292819 0.06757204 0.04125762
0.039402213 0.049690463 0.02129418 0.021265017 0.05825032 0.028436935 0.01813195 0.027631879
0.008432922 0.007918827 0.02716392 0.014787528 0.012330405 0.009987708 0.014233646 0.051146768
0.010057756 0.0119366 0.084643625 0.02617416 0.10509329 0.036460165 0.017740225 0.025614217
0.016421853 0.0101939 0.05573202 0.08447286 0.063552245 0.023636179 0.015039655 0.0064956085
0.024220174 0.035112083 0.030573172 0.073953405 0.027590984 0.12884244 0.037751462 0.08286435
0.012939344 0.02240742 0.030008825 0.10279867 0.07930492 0.026084369 0.07904779 0.018548159
0.051339462 0.01983475 0.0239945 0.0115754595 0.011910113 0.019523779 0.053912055 0.052153353
0.0066282204 0.016064748 0.010523551 0.0218923 0.016386801 0.046276055 0.026692739 0.10311384
0.0428925 0.046358485 0.12788813 0.008110778 0.019115245 0.049026534 0.0248206 0.012231897
0.026925521 0.032002598 0.026842706 0.023870545 0.026917988 0.028832426 0.01646882 0.017483098
0.005128683 0.014845743 0.027047506 0.08056816 0.038705107 0.019335307 0.025300182 0.04337204
0.02467222 0.005273351 0.010696692 0.059600215 0.1351707 0.036398996 0.027068557 0.009283206
0.09017241 0.026922839 0.0734309 0.016808165 0.014069388 0.024199799 0.00685695 0.0152117135
00000000: 9501 1f3c 089f e93c 2055 513d d6ab e23c
00000010: 0616 c83c 28c2 993c e9a4 703d ae86 5f3c
00000020: 3169 6d3c 2f60 bf3c 014d 093d 1da5 743d
00000030: f151 e93c 63e1 0b3d 831d 2a3d 26e5 c73c
00000040: f61f 693c f4cd e13c 5585 903d c74b 903d
00000050: cf4b 813d 26f0 113d ed89 c63c 295b d23c
00000060: 5dfe 163e afda 883c 6157 ca3c 70fa ad3d
00000070: 315e 103d 181f bf3c 747d 803c c45c 2d3d
00000080: a769 b33b 09b7 4b3d 9725 243c ddeb 8b3c
00000090: 89d7 283d 6524 183d d421 c63c 0df8 a13c
000000a0: ba16 093d 7baa 383d 0426 e13c d70b 323d
000000b0: a29c 9c3b a2c7 df3c 35ac a33c 5e3b 933d
000000c0: 7516 5b3d 17fc 803d d8a6 c33c 0fea ad3d
000000d0: 9db6 3b3d 9eac 093d f659 0c3c b51b 843c
000000e0: 386c 0f3d a43c a33d 4915 f33c 8779 813c
000000f0: 0a7e b73c 66e9 af3c 45b9 603c da37 ca3d
00000100: 22dd 213d 52ce f73c bdd6 db3c 0c0e 5d3c
00000110: f313 eb3c 9606 3c3c 50b8 fa3c 8372 f83c
00000120: 7580 953c 7a60 3d3c 237c c43c 0621 773d
00000130: 75ce 553d 8b2f 4b3c fc78 b03c 6ea4 f23c
00000140: 44dd 063d fd8e 223e ff88 243d 08e5 e23c
00000150: 9532 7d3c e3d3 cf3d e756 6e3c 089f c33d
00000160: bd43 d93c c67e a93b 5aaf 583c 83a3 aa3d
00000170: a3ae 733c e6d3 bb3c 3663 8a3d c0fd 283d
00000180: 3764 213d 3a88 4b3d 2271 ae3c f933 ae3c
00000190: e397 6e3d 93f4 e83c 7589 943c 405c e23c
000001a0: 3d2a 0a3c f8bd 013c df86 de3c 6347 723c
000001b0: 7805 4a3c 7ca3 233c 3d34 693c 467f 513d
000001c0: 49c9 243c bb91 433c a359 ad3d 316b d63c
000001d0: 273b d73d 4157 153d f353 913c e8d4 d13c
000001e0: 1f87 863c 5104 273c 4247 643d 1b00 ad3d
000001f0: ae27 823d a9a0 c13c e368 763c 1dd9 d43b
00000200: 6369 c63c b0d1 0f3d 9774 fa3c e274 973d
00000210: 7d06 e23c 46ef 033e 47a1 1a3d c9b4 a93d
00000220: 8bff 533c c48f b73c 11d5 f53c 1c88 d23d
00000230: 9e6a a23d e3ae d53c cfe3 a13d 4ff2 973c
00000240: 5449 523d 7c7c a23c 1d90 c43c ffa6 3d3c
00000250: a222 433c 55f0 9f3c e3d2 5c3d c19e 553d
00000260: 8b31 d93b 389a 833c f96a 2c3c 7b57 b33c
00000270: 9d3d 863c f68b 3d3d bbaa da3c 592d d33d
00000280: 0cb0 2f3d 65e2 3d3d 1bf5 023e 12e3 043c
00000290: 9397 9c3c 0cd0 483d 9254 cb3c 4b68 483c
000002a0: e992 dc3c 2815 033d 3ce5 db3c 298c c33c
000002b0: 1d83 dc3c fb31 ec3c 9ee9 863c b738 8f3c
000002c0: 830e a83b 8f3b 733c bb92 dd3c eb00 a53d
000002d0: 3f89 1e3d 1465 9e3c 5442 cf3c e1a6 313d
000002e0: 651d ca3c 13cc ac3b 2e41 2f3c 5b1f 743d
000002f0: 306a 0a3e 1d17 153d e1be dd3c 9718 183c
00000300: 50ac b83d 498d dc3c f162 963d 47b1 893c
00000310: 4a83 663c a83e c63c 44b0 e03b 8d3a 793c

weight f4 [100, 200]
0.073815815 -0.011384664 0.06322702 0.07547036 -0.04176158 0.10243196 0.0007963017 0.036501963
0.057603244 -0.0524151 0.015100159 0.0054407814 -0.022396898 0.054385897 -0.06415797 -0.048747722
0.07943381 0.10096016 0.03814861 -0.04289993 -0.05270544 -0.048854187 0.019956646 0.045730382
0.013196461 0.0017703244 0.086730465 0.044352528 0.0015815527 0.023519706 0.006595737 0.017609673
0.027035626 0.031410296 0.07375461 -0.013179776 0.053059243 0.052382242 0.03602137 0.011222105
-0.013224848 -0.040106833 0.07400614 -0.021701481 0.027551021 -0.045749698 0.081387594 0.024945667
0.015755879 0.020790381 -0.013678229 0.028359646 0.04319702 0.021012936 0.036751427 -0.004115853
0.009087395 0.041485086 0.03603782 -0.014578872 0.04388217 -0.020045046 -0.0070336633 -0.012731439
0.081404045 -0.06864199 0.01144201 0.0034242233 -0.02568841 -0.12859201 0.046615824 -0.0019139004
-0.038423568 -0.006189254 -0.016352085 -0.022194702 -0.067557275 0.06797093 -0.00071812083 0.079811886
-0.0402124 -0.05128449 0.0030093112 -0.03439353 0.046467446 0.05149881 0.07280893 -0.03482682
0.07947873 0.052556273 -0.012797674 0.011198663 0.027329415 0.08876666 -0.0670407 0.112812616
0.0339494 0.02479723 -0.03968202 -0.008417758 -0.039550353 0.03773516 -0.015314669 0.03665166
0.04844067 0.030754754 -0.008717324 -0.018587334 -0.0036158976 -0.08086759 0.10332431 0.004114771
-0.034897447 -0.05401486 -0.008509743 -0.040366165 -0.025252836 0.110918656 -0.036643352 0.052280445
0.02243367 -0.03413704 -0.060365867 0.032373 -0.05447406 0.06378553 0.0456762 0.03178169
-0.06517195 0.08949128 -0.05196102 -0.0441212 0.06606481 -0.017921358 -0.021709515 -0.0128292525
-0.12734096 -0.06278738 -0.009821895 0.05634157 0.004176526 0.02612738 -0.028771954 0.08673892
-0.017359873 0.05603707 0.030254312 0.033840925 0.007852845 0.052644495 0.04269543 0.00293997
0.07518237 -0.008889506 0.07699164 0.021579001 0.024450706 -0.006396786 -0.043168347 0.016181853
0.026314182 0.05504483 0.03332381 0.038775187 0.061935466 -0.050820656 0.09857674 0.053586062
0.03213589 0.06885286 -0.05542759 0.046684813 0.06648394 -0.03013544 0.019502446 -0.022790235
-0.01883368 0.0050876793 0.0515199 -0.0048541618 -0.038513564 0.04518225 0.046378385 -0.010667382
0.076419085 0.02164145 0.015385502 0.021002699 0.011802424 0.0012973024 0.01787378 0.013867888
-0.030581158 0.033860125 -0.009701286 -0.011749953 0.074702315 0.022143051 0.07546322 0.074943125
0.01511744 0.009729745 0.06383325 -0.031710766 0.0015752801 0.014762883 -0.0039981785 0.009712044
0.0083881635 -0.056846432 -0.008115804 0.08997007 -0.025822842 -0.047213126 -0.024932824 0.046447705
-0.060953923 -0.00836963 0.04233789 -0.05778421 0.041127183 -0.047717527 -0.014204052 0.03267825
0.0079382025 0.06296006 0.08605909 -0.055084594 0.06443187 0.025662448 -0.0169533 -0.06357145
0.05167665 0.036333404 -0.043621715 -0.079189666 -0.06165009 -0.007786207 -0.041913636 -0.009443225
0.09267108 -0.03022734 -0.050534077 0.0093464125 -0.038489144 -0.008568503 0.039213076 -0.002942962
-0.06562035 0.052710604 0.06542931 -0.065403886 0.048275273 -0.003779916 -0.07392256 -0.027522624
00000000: bf2c 973d be86 3abc 2b7d 813d 3490 9a3d
00000010: 310e 2bbd d9c7 d13d e7be 503a 1583 153d
00000020: 61f1 6b3d 37b1 56bd a866 773c 9548 b23b
00000030: b379 b7bc bfc3 5e3d 4165 83bd b1ab 47bd
00000040: 32ae a23d 33c4 ce3d b841 1c3d d6b7 2fbd
00000050: a9e1 57bd 541b 48bd 1f7c a33c c84f 3b3d
00000060: f835 583c 3b0a e83a be9f b13d ffaa 353d
00000070: 1a4c cf3a 66ac c03c 0d21 d83b 2942 903c
00000080: d179 dd3c 15a8 003d a80c 973d fdef 57bc
00000090: a654 593d c38e 563d 258b 133d ebdc 373c
000000a0: 08ad 58bc 1047 24bd 8890 973d 4ec7 b1bc
000000b0: aeb2 e13c 0964 3bbd 8aae a63d db5a cc3c
000000c0: 7912 813c 9750 aa3c a71a 60bc 7d52 e83c
000000d0: 5cef 303d 5223 ac3c aa88 163d 47de 86bb
000000e0: 4ce3 143c 44ec 293d 659c 133d 39dc 6ebc
000000f0: cabd 333d 8235 a4bc a57a e6bb 8797 50bc
00000100: 2ab7 a63d 2c94 8cbd 4577 3b3c ef68 603b
00000110: 8070 d2bc a0ad 03be 3cf0 3e3d d7db faba
00000120: 0862 1dbd 3acf cabb cff4 85bc aad1 b5bc
00000130: 785b 8abd 5834 8b3d 4640 3cba 6a74 a33d
00000140: c2b5 24bd af0f 52bd dd37 453b 3be0 0cbd
00000150: a654 3e3d 6bf0 523d d91c 953d 91a6 0ebd
00000160: bfc5 a23d 3f45 573d 56ad 51bc 997a 373c
00000170: f0e1 df3c 4bcb b53d a24c 89bd 4d0a e73d
00000180: 870e 0b3d 8f23 cb3c 9d89 22bd a3ea 09bc
00000190: 8dff 21bd 2f90 1a3d 61ea 7abc 0d20 163d
000001a0: b969 463d 65f1 fb3c 1bd3 0ebc 7744 98bc
000001b0: b2f8 6cbb e89d a5bd b29b d33d 33d5 863b
000001c0: a0f0 0ebd b03e 5dbd 736c 0bbc fe56 25bd
000001d0: 09df cebc 5229 e33d 5717 16bd 0524 563d
000001e0: d1c6 b73c 48d3 0bbd 3342 77bd 8d99 043d
000001f0: 3120 5fbd fda1 823d f816 3b3d 842d 023d
00000200: df78 85bd 3447 b73d 14d5 54bd 6eb8 34bd
00000210: fd4c 873d d0cf 92bc 27d8 b1bc c931 52bc
00000220: ab65 02be ab96 80bd 03ec 20bc 6bc6 663d
00000230: 3ddb 883b 1609 d63c 29b3 ebbc 2da4 b13d
00000240: 4b36 8ebc 2087 653d e4d7 f73c c89c 0a3d
00000250: 38a9 003c c1a1 573d 67e1 2e3d 83ac 403b
00000260: 37f9 993d 4aa5 11bc cbad 9d3d 72c6 b03c
00000270: d94c c83c 219c d1bb 4bd1 30bd ce8f 843c
00000280: d790 d73c b076 613d 8c7e 083d bbd2 1e3d
00000290: 0bb0 7d3d 5229 50bd 9ae2 c93d 0f7d 5b3d
000002a0: eca0 033d ba02 8d3d 0a08 63bd 9338 3f3d
000002b0: bb28 883d 99de f6bc 98c3 9f3c 96b2 babc
000002c0: 1749 9abc 8cb6 a63b 8806 533d a90f 9fbb
000002d0: 66c0 1dbd 0611 393d 43f7 3d3d 3ec6 2ebc
000002e0: 9c81 9c3d 6949 b13c 7913 7c3c da0d ac3c
000002f0: f45e 413c 3f0a aa3a 096c 923c 2336 633c
00000300: 5685 fabc eab0 0a3d 25f2 1ebc e082 40bc
00000310: 87fd 983d 5865 b53c 768c 9a3d c87b 993d
00000320: 24af 773c 8269 1f3c 02bb 823d 26e3 01bd
00000330: a179 ce3a 05e0 713c 2703 83bb 441f 1f3c
00000340: 826e 093c ced7 68bd 26f8 04bc 3a42 b83d
00000350: 6d8a d3bc 8d62 41bd ec3f ccbc f33f 3e3d
00000360: d2aa 79bd c620 09bc 7f6a 2d3d 23af 6cbd
00000370: fa74 283d 7473 43bd 1db8 68bc a1d9 053d
00000380: 3c0f 023c 34f1 803d c03f b03d 62a0 61bd
00000390: dbf4 833d 0e3a d23c a6e1 8abc c031 82bd
000003a0: e5aa 533d 56d2 143d afac 32bd 312e a2bd
000003b0: ce84 7cbd 7023 ffbb a2ad 2bbd c2b7 1abc
000003c0: 56ca bd3d 549f f7bc d2fc 4ebd b221 193c
000003d0: cba6 1dbd e862 0cbc e49d 203d b6de 40bb
000003e0: f663 86bd 13e7 573d cdff 853d 79f2 85bd
000003f0: 4bbc 453d 78b8 77bb b664 97bd 2077 e1bc

weight f4 [100]
0.9050011 0.89751405 1.0189544 0.9483178 0.94875234 0.94281185 1.0184411 0.95008713
0.8757387 0.94640034 0.94484156 0.93280834 0.94056433 0.94330466 0.9479664 0.88393265
0.9868859 0.96022063 1.0346602 0.95275694 0.72651625 1.0130374 0.931057 0.92271817
0.99639475 0.91855943 0.9333835 0.9418929 0.9956747 0.9403033 1.0388274 0.95514715
0.9391837 0.9276862 0.9477324 0.98947805 0.9723546 1.041728 0.9347531 0.9281429
1.0152602 0.9771632 0.95548165 0.8346231 1.0055311 0.9636129 0.9843331 0.9541237
1.0047585 0.94426054 0.9483795 0.94196916 1.0049988 0.93242943 0.9630882 0.9161539
0.9239704 0.99193484 0.96427304 0.97775626 0.9760448 0.9182911 0.92278355 1.0141392
0.9731251 0.9819686 0.92617863 0.61226857 0.65771556 0.94297355 1.0091823 0.8557045
0.95842254 1.0124122 1.0249408 0.9489472 1.0040257 0.9334599 1.0096966 0.57206124
1.0289748 0.7046838 0.8542185 0.9462217 1.0518357 0.93360895 0.9245749 0.968819
0.67279303 0.94441116 0.96623087 0.92921525 0.9334911 0.8886149 0.89569855 0.9754412
0.98678625 0.8361365 0.8818045 0.95821583
00000000: 27ae 673f 7bc3 653f 196d 823f f5c4 723f
00000010: 6fe1 723f 1e5c 713f 475c 823f e938 733f
00000020: 6930 603f 4b47 723f 23e1 713f 87cc 6e3f
00000030: d3c8 703f 6a7c 713f edad 723f 6949 623f
00000040: 8ea4 7c3f 05d1 753f bf6f 843f e1e7 733f
00000050: f8fc 393f 36ab 813f c059 6e3f 4237 6c3f
00000060: ba13 7f3f b626 6b3f 39f2 6e3f e51f 713f
00000070: 8ae4 7e3f b8b7 703f 4cf8 843f 8684 743f
00000080: 586e 703f d87c 6d3f 979e 723f 6f4e 7d3f
00000090: 3bec 783f 5857 853f fb4b 6f3f c69a 6d3f
000000a0: 0cf4 813f 5e27 7a3f 729a 743f dca9 553f
000000b0: 3eb5 803f 56af 763f 41fd 7b3f 7341 743f
000000c0: ed9b 803f 0fbb 713f 00c9 723f e424 713f
000000d0: cda3 803f b2b3 6e3f f38c 763f 1089 6a3f
000000e0: 5389 6c3f 71ef 7d3f 99da 763f 3c4e 7a3f
000000f0: 12de 793f 2015 6b3f 8b3b 6c3f 50cf 813f
00000100: ba1e 793f 4b62 7b3f 0b1a 6d3f a2bd 1c3f
00000110: 0c60 283f b766 713f e32c 813f 730f 5b3f
00000120: 2e5b 753f b996 813f 4331 833f 34ee 723f
00000130: ea83 803f 3af7 6e3f bd3d 813f 9b72 123f
00000140: 72b5 833f 2866 343f 10ae 5a3f 963b 723f
00000150: 8da2 863f ff00 6f3f f1b0 6c3f 8604 783f
00000160: 2a3c 2c3f eec4 713f e85a 773f 0de1 6d3f
00000170: 46f9 6e3f 447c 633f 804c 653f 84b6 793f
00000180: 069e 7c3f 0b0d 563f f1bd 613f a24d 753f

bias f4 [100]
0.025190892 0.0037579935 0.021956498 0.018643968 -0.008181934 -0.0032012258 0.0021010255 0.0013624784
-0.004492868 0.023123875 0.025915248 0.020787328 -0.0024391161 0.01983939 0.00093395746 0.0005736386
0.009052249 0.015931519 -0.0016099 0.017463505 0.04394786 -0.008216572 0.009103296 -0.03292707
-0.026035117 0.0074111996 0.011555357 0.028655231 0.00023269307 0.009460436 0.0067626815 0.025484292
-0.0067356923 -0.0028663473 0.022137014 -0.024041742 0.026914159 -0.007012332 -0.0011196804 0.022210918
-0.009642774 -0.0021875463 0.0036546793 -0.01028415 0.016428275 0.017851898 -0.006701976 -0.030312257
-0.004292889 0.005901853 0.011535077 0.010476794 0.007371091 0.0054881074 0.0044975257 -0.010812681
0.026084077 0.01990978 0.007560026 -0.0029772047 0.041527074 0.015455362 -0.008158981 0.00062922755
-0.0032064645 -0.016062623 -0.026958717 -0.022606205 0.11319303 -0.026827669 -0.00037336382 0.015133406
-0.008809606 -0.0072492505 0.013752743 0.011830863 0.013106259 0.008029837 0.019570153 -0.0076271817
0.009599977 -0.032525465 0.026462205 -0.003447444 0.0013281712 0.0013064151 -0.0014993569 -0.005618228
0.0077710804 -0.039652407 -0.0008379096 0.017220775 0.029257964 -0.011186345 -0.0042488035 0.0006303051
-0.0011092256 -0.013853272 -0.02984799 0.0056662224
00000000: 215d ce3c ab48 763b 1dde b33c 3cbb 983c
00000010: 850d 06bc a8cb 51bb 5cb1 093b 3095 b23a
00000020: e938 93bb 486e bd3c 374c d43c 304a aa3c
00000030: 94d9 1fbb 3786 a23c d3d4 743a 3c60 163a
00000040: e24f 143c d182 823c 4803 d3ba a00f 8f3c
00000050: ac02 343d cd9e 06bc fe25 153c 89de 06bd
00000060: 9947 d5bc a6d9 f23b ae52 3d3c 60be ea3c
00000070: 12ff 7339 f2ff 1a3c 7c99 dd3b 6fc4 d03c
00000080: 15b7 dcbb 54d9 3bbb af58 b53c 30f3 c4bc
00000090: 157b dc3c b4c7 e5bb 3dc2 92ba acf3 b53c
000000a0: bafc 1dbc f05c 0fbb 5883 6f3b da7e 28bc
000000b0: 9794 863c 253e 923c 409c dbbb 6951 f8bc
000000c0: 5dab 8cbb 5564 c13b 9ffd 3c3c dca6 2b3c
000000d0: 3189 f13b 95d5 b33b fb5f 933b ac27 31bc
000000e0: 46ae d53c d619 a33c 18ba f73b 351d 43bb
000000f0: 4b18 2a3d 7d38 7d3c 3fad 05bc bff2 243a
00000100: 8c23 52bb c395 83bc 87d8 dcbc a630 b9bc
00000110: bfd1 e73d b3c5 dbbc 0bc0 c3b9 1bf2 773c
00000120: 2a56 10bc 1f8b edbb 2f53 613c 3cd6 413c
00000130: a2bb 563c 948f 033c 9651 a03c 70ed f9bb
00000140: 3949 1d3c 6c39 05bd 44c7 d83c 83ee 61bb
00000150: 0816 ae3a 043c ab3a 1286 c4ba 1d19 b8bb
00000160: 8ca4 fe3b 906a 22bd 29a7 5bba 9512 8d3c
00000170: 66ae ef3c ee46 37bc 8c39 8bbb 0f3b 253a
00000180: 6f63 91ba d6f8 62bc c683 f4bc b8ab b93b

running_mean f4 [100]
0.45323163 0.6204392 1.0726418 0.70444864 1.3509494 0.50758773 0.4489205 0.39643875
0.9728641 0.5389579 1.132395 0.5596132 0.7887334 0.60894173 0.5401069 0.915219
1.2611321 0.8286981 2.6910107 0.3916427 0.6304124 0.7489387 0.48255512 0.26830858
1.3045548 0.46251804 0.47597456 0.85148734 0.8881953 0.8269831 1.3007957 0.36938918
0.80094355 0.69000494 0.7955367 0.80019534 1.335103 1.0682709 0.61901116 0.5978224
1.5803955 1.0918187 0.93589383 0.5992905 0.4617575 0.7262419 0.90577024 0.7692748
0.8123793 0.9169202 0.49697974 0.5288225 1.3121169 0.5700119 0.8300937 0.67532337
0.6179966 0.474096 0.4518395 0.9033462 1.1788968 0.57361954 0.4907341 0.6557063
0.99584913 0.89696455 0.70186484 1.4738814 0.74415433 0.41131586 1.2795098 0.87839425
0.7880459 0.6915576 1.2886456 0.25702128 0.62316 0.7485723 1.4270575 1.1718417
0.57130444 0.7483503 1.556249 1.2826157 0.9853704 0.8982328 1.3112967 1.1214203
0.67762226 1.4497454 1.6014516 0.23547688 0.478193 0.7911527 0.9499562 0.7121281
0.935786 0.5000263 1.2733605 0.99455893
00000000: fa0d e83e 1ad5 1e3f 544c 893f bf56 343f
00000010: e9eb ac3f 45f1 013f e8d8 e53e 05fa ca3e
00000020: 9f0d 793f 25f9 093f 52f2 903f d042 0f3f
00000030: 6fea 493f 9be3 1b3f 7244 0a3f cb4b 6a3f
00000040: c76c a13f 8f25 543f 8539 2c40 6485 c83e
00000050: b562 213f 72ba 3f3f 7711 f73e be5f 893e
00000060: a7fb a63f 2acf ec3e f0b2 f33e 13fb 593f
00000070: c460 633f 2ab5 533f 7980 a63f 9420 bd3e
00000080: a30a 4d3f 2aa4 303f 4ba8 4b3f 9ad9 4c3f
00000090: a8e4 aa3f 1abd 883f 8477 1e3f e40a 193f
000000a0: 664a ca3f b7c0 8b3f bd96 6f3f 1a6b 193f
000000b0: 7b6b ec3e fdea 393f 8fe0 673f 31ef 443f
000000c0: 17f8 4f3f 48bb 6a3f 2174 fe3e e960 073f
000000d0: 72f3 a73f 4dec 113f 0581 543f fee1 2c3f
000000e0: 0635 1e3f b6bc f23e 8257 e73e b241 673f
000000f0: 17e6 963f bbd8 123f 8041 fb3e 5edc 273f
00000100: f8ef 7e3f 789f 653f 6aad 333f 25a8 bc3f
00000110: e680 3e3f fe97 d23e fac6 a33f 72de 603f
00000120: 60bd 493f eb09 313f 57f2 a43f 4b98 833e
00000130: 6a87 1f3f 6fa2 3f3f d2a9 b63f e9fe 953f
00000140: 0241 123f e393 3f3f 2b33 c73f c02c a43f
00000150: 3c41 7c3f 96f2 653f 92d8 a73f b38a 8f3f
00000160: a778 2d3f 4291 b93f 5efc cc3f da20 713e
00000170: b7d5 f43e fc88 4a3f 5430 733f 074e 363f
00000180: ac8f 6f3f b901 003f 7afd a23f 6a9b 7e3f

running_var f4 [100]
0.69916403 0.6699231 1.6227779 0.7492952 1.5379801 0.6726763 0.5322732 0.82048625
1.2589054 1.1330354 1.6741513 1.2015663 1.1627485 0.99021244 0.95525527 1.3547198
1.9370685 2.152584 5.9018145 0.3483407 0.89568627 0.99318445 0.4534665 0.1982804
4.255659 0.51463735 0.44638214 1.7145085 1.0353991 0.93169576 1.6040813 0.49107057
1.0960001 1.0845659 1.0011672 1.0433776 5.1289077 1.9725872 0.81110305 0.57917416
2.3933978 3.1338267 2.747358 0.6073165 0.5417162 1.1618043 2.7182705 1.9278579
1.2792019 1.4180981 1.2304717 0.546484 4.8544984 0.6382629 0.993456 0.717751
0.8748924 0.44495463 0.4636196 2.6408002 3.3139715 0.8225427 0.50817627 0.699836
1.831469 1.0813824 1.1822367 5.9098697 1.503358 0.395977 5.697319 1.9869297
1.0881283 1.0258998 2.8076496 0.3023162 0.8840095 1.0558684 6.464699 2.7697885
0.79641753 1.8725827 4.4150367 2.480907 1.8619978 1.7516389 2.0275183 3.4313982
1.2863413 4.552261 6.4324074 0.24070156 1.0270165 1.3526669 1.5081912 0.9671974
1.1427665 0.53490657 1.9832013 1.9349827
00000000: 6afc 323f 1580 2b3f 30b7 cf3f cfd1 3f3f
00000010: 88dc c43f 8434 2c3f 0e43 083f 630b 523f
00000020: d023 a13f 4e07 913f 974a d63f edcc 993f
00000030: f1d4 943f 907e 7d3f 9c8b 743f 7567 ad3f
00000040: dcf1 f73f f0c3 0940 aadb bc40 b659 b23e
00000050: b24b 653f 5641 7e3f c32c e83e 040a 4b3e
00000060: 5c2e 8840 46bf 033f 338c e43e 0475 db3f
00000070: f587 843f 9d83 6e3f 8952 cd3f 9a6d fb3e
00000080: bb49 8c3f 0ed3 8a3f 3f26 803f 668d 853f
00000090: 0320 a440 bd7d fc3f 73a4 4f3f c244 143f
000000a0: 6e2d 1940 9e90 4840 b7d4 2f40 1879 1b3f
000000b0: eaad 0a3f 01b6 943f 25f8 2d40 0cc4 f63f
000000c0: e3bc a33f 3d84 b53f 1980 9d3f 60e6 0b3f
000000d0: 0d58 9b40 3365 233f 2253 7e3f 88be 373f
000000e0: f3f8 5f3f 18d1 e33e 8c5f ed3e df02 2940
000000f0: 1c18 5440 2992 523f d717 023f 7428 333f
00000100: 946d ea3f bd6a 8a3f 8853 973f a71d bd40
00000110: 096e c03f 7fbd ca3e 7050 b640 b653 fe3f
00000120: ca47 8b3f af50 833f 88b0 3340 30c9 9a3e
00000130: 724e 623f b226 873f d0de ce40 3744 3140
00000140: 05e2 4b3f cab0 ef3f fb47 8d40 2ec7 1e40
00000150: f255 ee3f b435 e03f dcc2 0140 079c 5b40
00000160: d5a6 a43f 1fac 9140 48d6 cd40 787a 763e
00000170: 4775 833f 3024 ad3f 690c c13f 409a 773f
00000180: 2c46 923f a3ef 083f 8ad9 fd3f 83ad f73f

weight f4 [1, 100]
0.028525844 0.010485587 -0.07232304 -0.045611646 -0.036725335 0.031152299 0.10059043 0.0384008
0.020358408 0.04163705 -0.021850852 0.045146305 -0.042722505 0.05635952 0.051072508 -0.014093467
-0.0653201 -0.05411492 -0.06594414 -0.050130993 -0.0027849996 0.08711211 0.014308989 -0.03297513
-0.06977529 0.034789085 0.033091336 0.031127784 -0.07002113 -0.036904547 -0.10796588 0.04780722
-0.041168198 -0.031050723 0.044122934 -0.08713632 -0.056705106 -0.07400692 -0.001772222 0.037401143
-0.08667045 -0.06796059 0.033075213 0.016537027 0.085212685 0.043551445 -0.06584348 0.030638026
-0.0841426 0.032850996 0.047133114 0.03251605 -0.059867583 -0.026344148 -0.05403495 -0.031484846
0.018757923 0.087562464 0.06078796 -0.07340582 0.045659743 -0.03098518 0.018941438 0.11645137
-0.05824382 -0.08574469 -0.021793466 -0.0041430285 0.0040384214 0.028971298 -0.0561265 -0.014003071
-0.037122615 -0.09284781 -0.0757337 0.06872681 0.07512294 -0.030184675 -0.048074823 0.0033269816
-0.08244882 0.012795569 -0.020094173 -0.027308935 0.101083584 0.040557783 0.0023679608 -0.06098112
0.0049717645 -0.029003056 -0.043346707 0.027109489 0.037398413 0.027060525 0.030966366 0.05209481
-0.09223786 -0.0013647202 -0.027833277 -0.04203447
00000000: 08af e93c bdcb 2b3c 1a1e 94bd 47d3 3abd
00000010: 4e6d 16bd 1b33 ff3c 5b02 ce3d 284a 1d3d
00000020: adc6 a63c 9d8b 2a3d 8f00 b3bc 55eb 383d
00000030: cbfd 2ebd 3dd9 663d 6831 513d 49e8 66bc
00000040: 8bc6 85bd 9ba7 5dbd b90d 87bd 2856 4dbd
00000050: 8a84 36bb d567 b23d 4070 6a3c ee10 07bd
00000060: 59e6 8ebd 007f 0e3d c88a 073d b2ff fe3c
00000070: 3d67 8fbd 3929 17bd 371d ddbd 81d1 433d
00000080: fc9f 28bd 165e febc 40ba 343d 8774 b2bd
00000090: 9d43 68bd f190 97bd e749 e8ba f131 193d
000000a0: 4780 b1bd ec2e 8bbd e079 073d a978 873c
000000b0: fd83 ae3d 0063 323d f2d8 86bd 99fc fa3c
000000c0: f552 acbd c48e 063d a70e 413d 8d2f 053d
000000d0: b637 75bd afcf d7bc c053 5dbd 41f6 00bd
000000e0: 37aa 993c f353 b33d ccfc 783d ca55 96bd
000000f0: b605 3b3d a2d4 fdbc 132b 9b3c 0e7e ee3d
00000100: 1291 6ebd e99a afbd 3688 b2bc 3ec2 87bb
00000110: bc54 843b 3755 ed3c e7e4 65bd 236d 65bc
00000120: e20d 18bd fe26 bebd 451a 9bbd a4c0 8c3d
00000130: 0eda 993d da45 f7bc 1bea 44bd 7d09 5a3b
00000140: edda a8bd 82a4 513c 899c a4bc fdb6 dfbc
00000150: e904 cf3d eb1f 263d ca2f 1b3b 57c7 79bd
00000160: 2fea a23b d197 edbc 518c 31bd b814 de3c
00000170: 142f 193d 09ae dd3c 2dad fd3c 5e61 553d
00000180: 34e7 bcbd 69e0 b2ba 9d02 e4bc 562c 2cbd
